
INFO:root:/ibex/user/linj0b/logs/ijepa-pos/vit_small/ijepa/bs256_lr_0.001_ep300_ps_14_pr0_pl0.2_sl0.0002_fl1e-06_fw0.4_wp40_wd0.04_de256_dh8_dd2_ucFalse_ugFalse_uhFalse
INFO:root:VisionTransformer(
  (blocks): ModuleList(
    (0-11): 12 x Block(
      (norm1): LayerNorm((384,), eps=1e-06, elementwise_affine=True)
      (attn): Attention(
        (qkv): Linear(in_features=384, out_features=1152, bias=True)
        (attn_drop): Dropout(p=0.0, inplace=False)
        (proj): Linear(in_features=384, out_features=384, bias=True)
        (proj_drop): Dropout(p=0.0, inplace=False)
      )
      (drop_path): Identity()
      (norm2): LayerNorm((384,), eps=1e-06, elementwise_affine=True)
      (mlp): MLP(
        (fc1): Linear(in_features=384, out_features=1536, bias=True)
        (act): GELU(approximate='none')
        (fc2): Linear(in_features=1536, out_features=384, bias=True)
        (drop): Dropout(p=0.0, inplace=False)
      )
    )
  )
  (norm): LayerNorm((384,), eps=1e-06, elementwise_affine=True)
  (avg_pool): FeatAvgPool(
    (avg_pool): AdaptiveAvgPool1d(output_size=1)
  )
  (patch_embed): PatchEmbed(
    (proj): Conv2d(3, 384, kernel_size=(14, 14), stride=(14, 14))
  )
  (decoder_embed): Linear(in_features=384, out_features=256, bias=True)
  (decoder_blocks): ModuleList(
    (0-1): 2 x Block(
      (norm1): LayerNorm((256,), eps=1e-06, elementwise_affine=True)
      (attn): Attention(
        (qkv): Linear(in_features=256, out_features=768, bias=True)
        (attn_drop): Dropout(p=0.0, inplace=False)
        (proj): Linear(in_features=256, out_features=256, bias=True)
        (proj_drop): Dropout(p=0.0, inplace=False)
      )
      (drop_path): Identity()
      (norm2): LayerNorm((256,), eps=1e-06, elementwise_affine=True)
      (mlp): MLP(
        (fc1): Linear(in_features=256, out_features=1024, bias=True)
        (act): GELU(approximate='none')
        (fc2): Linear(in_features=1024, out_features=256, bias=True)
        (drop): Dropout(p=0.0, inplace=False)
      )
    )
  )
  (decoder_norm): LayerNorm((256,), eps=1e-06, elementwise_affine=True)
  (decoder_pred): Linear(in_features=256, out_features=256, bias=True)
  (prober): Linear(in_features=384, out_features=100, bias=True)
)
INFO:root:making imagenet data transforms
INFO:root:data-path /ibex/user/linj0b/data/imagenet_100/train/
INFO:root:Initialized ImageNet
INFO:root:ImageNet dataset created
INFO:root:ImageNet unsupervised data loader created
INFO:root:Using AdamW
INFO:root:Epoch 1
INFO:root:[1,     0] [loss: 0.447] [ijepa loss: 0.447] [pos loss: 0.000] [probe loss: 0.004] [probe acc: 0.000] [wd: 4.00e-02] [lr: 4.63e+00] (1811.5 ms)
…
